autoencoder/models/fan_low_model-deploy.tflite (tflite, 1156 bytes, 4 tensors)

sequential_4/dense_8/MatMul/ReadVariableOp/transpose f4 [2, 3]
0	0xbf725189	-0.9465566
1	0xbed9f46e	-0.42569298
2	0x3f38ef5c	0.72240233
3	0x3edea10c	0.43482244
4	0xbedabfc6	-0.42724437
5	0x3f53dc4f	0.8275804

sequential_4/dense_8/MatMul_bias f4 [2]
0	0x00000000	0.0
1	0xbc4d08e7	-0.0125143295

sequential_4/dense_9/MatMul/ReadVariableOp/transpose f4 [3, 2]
0	0x3f0148ca	0.5050169
1	0x3f5d3257	0.8640494
2	0x3f71e0dc	0.94483733
3	0x3e5169c8	0.20450509
4	0xbf329632	-0.6976043
5	0x3f84a76c	1.0363593

sequential_4/dense_9/MatMul_bias f4 [3]
0	0x3bf853ea	0.0075783627
1	0x3be8a49f	0.0070997025
2	0x3bf13a2a	0.00736167
