autoencoder/models/fan_low_model-deploy.tflite (tflite, 1168 bytes, 4 tensors)

sequential_81/dense_216/MatMul/ReadVariableOp/transpose f4 [2, 3]
0	0x3bfe01c0	0.0077516735
1	0x3f4f0495	0.80866367
2	0xbec9c62d	-0.3940901
3	0x3f1efefb	0.6210782
4	0x3f0d7bb3	0.55266875
5	0xbf86b631	-1.052435

sequential_81/dense_216/MatMul_bias f4 [2]
0	0xbc557360	-0.013027996
1	0xbb05e511	-0.0020430724

sequential_81/dense_217/MatMul/ReadVariableOp/transpose f4 [3, 2]
0	0xbec8fac1	-0.3925381
1	0x3eaf4014	0.34228575
2	0xbea9a8eb	-0.33136687
3	0x3f4b6ebc	0.7946584
4	0x3f614ad5	0.8800481
5	0xbf7847a9	-0.96984345

sequential_81/dense_217/MatMul_bias f4 [3]
0	0x3bf12224	0.007358806
1	0x3b45c566	0.0030177473
2	0x3baba8b1	0.0052386154
