autoencoder/models/fan_low_model-moving.tflite (tflite, 1164 bytes, 4 tensors)

sequential_10/dense_20/MatMul/ReadVariableOp/transpose f4 [2, 3]
000000 cc fa 51 3f 06 0f 10 3f f3 18 6d bf 20 05 5c 3f
       0.8202331 0.56272924 -0.92616194 0.8594532
000010 28 05 4e 3f 6e c8 dd 3e
       0.8047662 0.43316978

sequential_10/dense_20/MatMul_bias f4 [2]
000000 b0 40 ae bc 34 e8 2e bb
       -0.02127108 -0.0026688697

sequential_10/dense_21/MatMul/ReadVariableOp/transpose f4 [3, 2]
000000 18 f6 4d bf f4 a0 87 3d a2 93 94 be d4 40 4b be
       -0.80453634 0.06622496 -0.29018885 -0.19848949
000010 19 50 21 be 44 64 12 3f
       -0.15753211 0.57184243

sequential_10/dense_21/MatMul_bias f4 [3]
000000 2b eb e4 3b 00 00 00 00 67 b0 0a bb
       0.006986042 0.0 -0.0021162273
