models/fan_low_model.tflite (tflite, 1172 bytes, 4 tensors)

sequential_1/dense_2/MatMul/ReadVariableOp/transpose f4 [2, 3]
00000000: 6f9e 753f dd10 7ebf bd1e 6cbd 9899 b23d
00000010: 0e9a bf3e 6375 64bf
0.95944875 -0.9924448 -0.0576465 0.08720702 0.37422222 -0.8924162

sequential_1/dense_2/MatMul_bias f4 [2]
00000000: ca48 37bc b464 7339
-0.011186788 0.000232118

sequential_1/dense_3/MatMul/ReadVariableOp/transpose f4 [3, 2]
00000000: d810 8ebd a65d 2a3f 3da4 a73c dfa6 153f
00000010: 4434 633f e702 893d
-0.069368064 0.66549146 0.020464057 0.5845775 0.88751626 0.06690007

sequential_1/dense_3/MatMul_bias f4 [3]
00000000: 3dc9 443c 1728 e63b dc5f a03b
0.01201087 0.007023822 0.00489424
