models/fan_low_model-deploy.tflite (tflite, 1164 bytes, 4 tensors)

sequential_6/dense_12/MatMul/ReadVariableOp/transpose f4 [2, 3]
0	0x3f6130f1	0.87965304
1	0xbef55aa3	-0.47920713
2	0x3eb6dd1f	0.35715577
3	0x3ea8d72e	0.3297667
4	0xbe486114	-0.19568282
5	0xbdf0204c	-0.1172491

sequential_6/dense_12/MatMul_bias f4 [2]
0	0xbd0a06ae	-0.033697776
1	0xbc859767	-0.016307546

sequential_6/dense_13/MatMul/ReadVariableOp/transpose f4 [3, 2]
0	0x3dac403f	0.084106915
1	0xbe977efc	-0.2958907
2	0x3e5f8055	0.21826299
3	0x3ec84153	0.39112338
4	0x3efc2f9c	0.49255073
5	0x3ebca5e4	0.36845315

sequential_6/dense_13/MatMul_bias f4 [3]
0	0x3ceec013	0.029144322
1	0x3bf4c054	0.0074692164
2	0x3c96f69c	0.01842814
